…
.ai/aurora_gpt/ezpz.test_dist/runs/4mwyy84l)\n[2024-11-28 13:44:35.495959][INFO][dist.py:304] - Updating wandb.run: driven-wind-683 config with \"DIST_INFO\"\n[2024-11-28 13:44:35.500222][INFO][dist.py:936] - Running on machine='SunSpot'\n[2024-11-28 13:44:35.501304][INFO][dist.py:92] -\n\n[CONFIG]:\n\u2022 warmup=0\n\u2022 log_freq=1\n\u2022 batch_size=64\n\u2022 input_size=128\n\u2022 output_size=128\n\u2022 dtype=torch.float32\n\u2022 device=xpu\n\u2022 world_size=48\n\u2022 train_iters=100\n\n\n[2024-11-28 13:44:35.575161][INFO][test_dist.py:147] - model=Network(\n(layers): Sequential(\n(0): Linear(in_features=128, out_features=1024, bias=True)\n(1): Linear(in_features=1024, out_features=512, bias=True)\n(2): Linear(in_features=512, out_features=256, bias=True)\n(3): Linear(in_features=256, out_features=128, bias=True)\n(4): Linear(in_features=128, out_features=128, bias=True)\n)\n)\n[2024-11-28 13:44:48.340596][INFO][test_dist.py:228] - iter=1 dt=0.019713 dtf=0.002959 dtb=0.016754 loss=1821.131958 sps=3246.551823\n[2024-11-28 13:44:48.346527][INFO][test_dist.py:228] - iter=2 dt=0.004083 dtf=0.000822 dtb=0.003261 loss=1348.032227 sps=15673.877930\n[2024-11-28 13:44:48.351387][INFO][test_dist.py:228] - iter=3 dt=0.003260 dtf=
…
s6b0n0'][ 1/23] [pp:0/2][tp:1/3][dp:0/1]\n[2025-04-01 08:58:45][I][ezpz/dist:923] ['x4317c7s6b0n0'][ 3/23] [pp:0/2][tp:3/3][dp:0/1]\n[2025-04-01 08:58:45][I][ezpz/dist:923] ['x4317c7s7b0n0'][12/23] [pp:0/2][tp:0/3][dp:1/1]\n[2025-04-01 08:58:45][I][ezpz/dist:923] ['x4317c7s7b0n0'][14/23] [pp:0/2][tp:2/3][dp:1/1]\n[2025-04-01 08:58:45][I][ezpz/dist:923] ['x4317c7s7b0n0'][13/23] [pp:0/2][tp:1/3][dp:1/1]\n[2025-04-01 08:58:45][I][ezpz/dist:923] ['x4317c7s7b0n0'][15/23] [pp:0/2][tp:3/3][dp:1/1]\n[2025-04-01 08:58:46][I][ezpz/test_dist:395:__main__] model=\nNetwork(\n  (layers): Sequential(\n    (0): Linear(in_features=128, out_features=1024, bias=True)\n    (1): Linear(in_features=1024, out_features=512, bias=True)\n    (2): Linear(in_features=512, out_features=256, bias=True)\n    (3): Linear(in_features=256, out_features=128, bias=True)\n    (4): Linear(in_features=128, out_features=128, bias=True)\n  )\n)\n[2025-04-01 08:58:58][I][ezpz/dist:1100] Setting up wandb from rank=0\n[2025-04-01 08:58:58][I][ezpz/dist:1101] Using=WB PROJECT=ezpz.test_dist\nwandb: Using wandb-core as the SDK backend.  Please refer to https://wandb.me/wandb-core for more information.\nwandb: Currently logged in as: foremans (aurora_gpt) to https://api.wandb.ai. Use `wandb
…
 ['x3006c0s1b0n0'][6/7] [pp:1/1][tp:0/1][dp:1/1]\n[2025-04-01 09:22:51][I][ezpz/dist:923] ['x3006c0s1b0n0'][7/7] [pp:1/1][tp:1/1][dp:1/1]\n[2025-04-01 09:22:51][I][ezpz/dist:923] ['x3006c0s19b0n0'][1/7] [pp:0/1][tp:1/1][dp:0/1]\n[2025-04-01 09:22:52][I][ezpz/dist:923] ['x3006c0s1b0n0'][5/7] [pp:0/1][tp:1/1][dp:1/1]\n[2025-04-01 09:22:52][I][ezpz/dist:923] ['x3006c0s19b0n0'][0/7] [pp:0/1][tp:0/1][dp:0/1]\n[2025-04-01 09:22:52][I][ezpz/dist:923] ['x3006c0s1b0n0'][4/7] [pp:0/1][tp:0/1][dp:1/1]\n[2025-04-01 09:22:52][I][ezpz/test_dist:395:__main__] model=\nNetwork(\n  (layers): Sequential(\n    (0): Linear(in_features=128, out_features=1024, bias=True)\n    (1): Linear(in_features=1024, out_features=512, bias=True)\n    (2): Linear(in_features=512, out_features=256, bias=True)\n    (3): Linear(in_features=256, out_features=128, bias=True)\n    (4): Linear(in_features=128, out_features=128, bias=True)\n  )\n)\n[2025-04-01 09:22:53][I][ezpz/dist:1100] Setting up wandb from rank=0\n[2025-04-01 09:22:53][I][ezpz/dist:1101] Using=WB PROJECT=ezpz.test_dist\nwandb: Currently logged in as: foremans (aurora_gpt). Use `wandb login --relogin` to force relogin\nwandb: wandb version 0.19.8 is available!  To upgrade, please run:\nwandb:  $ pip install wandb --up
…
