…
ialized externally, CCL-MPI specific environment is ignored\n2024:04:19-16:51:06:(16918) |CCL_WARN| MPI was initialized externally, CCL-MPI specific environment is ignored\n2024:04:19-16:51:06:(16919) |CCL_WARN| MPI was initialized externally, CCL-MPI specific environment is ignored\n2024:04:19-16:51:06:(16920) |CCL_WARN| MPI was initialized externally, CCL-MPI specific environment is ignored\n2024:04:19-16:51:06:(16921) |CCL_WARN| MPI was initialized externally, CCL-MPI specific environment is ignored\n[2024-04-19 16:51:06][INFO][test_dist:71] - model=Network(\n  (layers): Sequential(\n    (0): Linear(in_features=128, out_features=1024, bias=True)\n    (1): Linear(in_features=1024, out_features=512, bias=True)\n    (2): Linear(in_features=512, out_features=256, bias=True)\n    (3): Linear(in_features=256, out_features=128, bias=True)\n    (4): Linear(in_features=128, out_features=128, bias=True)\n  )\n)\n[2024-04-19 16:51:18][INFO][test_dist:101] - iter=0, loss=2709.53418, dt=1.380, dtf=0.950, dtb=0.430\n[2024-04-19 16:51:18][INFO][test_dist:101] - iter=1, loss=2058.49805, dt=0.133, dtf=0.002, dtb=0.131\n[2024-04-19 16:51:18][INFO][test_dist:101] - iter=2, loss=1507.91187, dt=0.004, dtf=0.001, dtb=0.004\n[2024-04-19 16:51:18][INFO][test_dist:1
…
Sams-MacBook-Pro.local\",\n    \"NGPUS\": 12,\n    \"NODE_ID\": 0,\n    \"NUM_NODES\": 1,\n    \"RANK\": 0,\n    \"SCHEDULER\": \"LOCAL\",\n    \"WORLD_SIZE_IN_USE\": 12,\n    \"WORLD_SIZE_TOTAL\": 12\n}\n[2024-04-19 14:44:13][INFO][dist:605] - [0/12] Using device='cpu' with backend='DDP' + 'gloo' for distributed training.\n[2024-04-19 14:44:13][INFO][dist:290] - [device='cpu'][rank=0/11][local_rank=0/11][node=0/0]\n[2024-04-19 14:44:13][WARNING][dist:296] - Using [12 / 12] available \"cpu\" devices !!\n[2024-04-19 14:44:13][INFO][test_dist:72] - model=Network(\n  (layers): Sequential(\n    (0): Linear(in_features=128, out_features=1024, bias=True)\n    (1): Linear(in_features=1024, out_features=512, bias=True)\n    (2): Linear(in_features=512, out_features=256, bias=True)\n    (3): Linear(in_features=256, out_features=128, bias=True)\n    (4): Linear(in_features=128, out_features=128, bias=True)\n  )\n)\n[2024-04-19 14:44:14][INFO][test_dist:102] - iter=0, loss=2801.62549, dt=0.389, dtf=0.042, dtb=0.348\n[2024-04-19 14:44:14][INFO][test_dist:102] - iter=1, loss=2092.84692, dt=0.051, dtf=0.010, dtb=0.041\n[2024-04-19 14:44:14][INFO][test_dist:102] - iter=2, loss=1482.45520, dt=0.037, dtf=0.004, dtb=0.033\n[2024-04-19 14:44:14][INFO][test_dist:1
…
